model.pth (torch, 13876 bytes, 6 tensors)

l1.weight f4 [8, 224]
00000000: 32c2 123f cd2e 21bf 0ea3 113d d92e ea3e
00000010: 1bce b0be 0370 713f 28d0 d53e ad17 5b3f
00000020: cb0d ecbe 1e63 fcbd d342 293f 6b0d 7fbf
00000030: 57ea 383f 50cc 773f 0caf fc3f 5b2a d7bd
00000040: 218c 72be fe87 86be 94a1 113f 6358 acbe
00000050: d58e 683e 1661 6dbd d92c d3be e122 8dbd
00000060: f833 4dbe 597a ab3e 217a 39be 06d4 083f
00000070: f538 08bf b8a6 41bf 0e74 ee3f 36b2 753f
00000080: 7fed 0e3f 1da2 9e3d 5a24 5a3f 2af6 b83f
00000090: 869e bc3f 5230 203f 9a5b 0c3f 916b c8be
000000a0: 923b 483f a29d 193f 11d4 3d3f d945 3d3f
000000b0: 4f9b 97be fb9c 69bd 51d0 c9be e416 cc3e
000000c0: 61d1 08bf c3be c2be d86f d7be 6aeb 4b3f
000000d0: da70 f2be f8d6 633f 62af fb3d 23b3 f2be
000000e0: dd65 8abe 0e3d 98bd 08ae 98be d103 7d3f
000000f0: 667c 603f cbc1 d5be 2c30 4e3f d0d0 bfbd
00000100: 0f83 c3be 1a86 f0bd 05f3 33be 7fc8 8c3f
00000110: 1733 b8bd b48f f3be f987 d0bd 3e78 04be
00000120: 742b acbd ada2 1cbf 8c1d 853f 2c6a ccbe
00000130: dc3f 4fbe 8c1b 823e 7517 f6be f562 5f3f
00000140: 74ad 853e 48b2 6d3f 9ee7 453c 65cd 1940
00000150: 3a8c 7b3b 24df 9a3f dfec f7be b350 2dbe
00000160: b289 bc3e 1880 74be 69e1 893f 78ed 87bd
00000170: 76fb 3d3f a115 4dbe 48b4 1c3e 9873 873f
00000180: 88ab 80bd 1268 5ebf 9fba 823c c55f fe3d
00000190: 40a4 973f c709 09be 85b8 70be b3f6 06bd
000001a0: 951b 27bf d362 e0be 7a5d 973f fdd1 31bd
000001b0: 5dcc 143f d1c3 87be 7872 c93f 6213 c6be
000001c0: a57f 89bd 9740 c2be dd0c 4d3d 8917 c43f
000001d0: 8b0c 6e3f e555 8bbe 8845 d03f 567c cdbe
000001e0: e800 c2bf 8948 4a3f 6bfe c6be 7b34 6ebd
000001f0: 1a5a b2be d77a 2d3f 90a8 a1bc ab9c 8ebe
00000200: d71f 85be bc5a 153f 91b3 0b3e 21b5 0cbf
00000210: d022 a0be dc32 39be 9741 61be 3cfe 0fbf
00000220: 0080 00bf 726c 67be 083e a6be 70a0 81be
00000230: 98c2 1abf 2795 9a3f 2660 ab3f 81e2 99be
00000240: 5a7e 7fbe 7ff6 ac3e 1e01 283f 41c5 943f
00000250: 1cb4 f33f 33d2 95bf af42 22bf 08ca a03d
00000260: 237c 38bf 943f a2be 9a84 81bd c874 9b3f
00000270: 4603 583f 0cf4 4dbf 4dec 95bf 3776 183e
00000280: db1f 37be 3623 2ebf a67d 683f 8dee 423e
00000290: 5d29 0dbd 1e15 bcbe f712 54bc 1c01 23be
000002a0: 1739 1abe e5e9 763f d854 15be ecbf 1f3f
000002b0: bfcc 4fbe 3624 ffbd 66ac 14bf 6eaa 6e3f
000002c0: 6d90 e93e ea0c 39bf 6f3d adbe c901 c33e
000002d0: bdad adbe f675 80bf 95d6 0dbd ec85 023f
000002e0: 283a 793e a2eb f2be 87e0 26bf 3db2 c83d
000002f0: dc71 c93e 4c02 dfbd 809d a5be 254d 6ebe
00000300: bbdd 0ebf ceee 8c3f 41c2 19be f989 91bd
00000310: 2109 1e3f 31a0 ccbe 2e69 ee3f 3d99 ddbe
00000320: 74c0 db3e 5f50 88be 50a2 38bd fac0 843e
00000330: 0e9b 84be 2d8a cdbe 3f7f 16be 5464 e13b
00000340: d73d 22bf b3c0 b6be a957 c33e 3784 17be
00000350: 51e8 d2be f72a 893e 223d 763e fca7 dfbe
00000360: 4c3e a1be 6bcb ddbe 7f3f 6abe 60cc d33b
00000370: f925 5fbe ac84 00bf c908 a13e 7d02 c33d
00000380: 9533 93bd 0e97 073d b66f 5cbd 049c 3c3e
00000390: 8e07 3f3f 296f c1be 39fe 01bf 57e3 1fbf
000003a0: e155 253f e4d0 3d3f f375 023f 57ba 09bf
000003b0: 8885 02be e80a eabe a080 67bf 9a56 883f
000003c0: 360a 0f3f 5ba8 7e3e 4677 083f 6c06 f53e
000003d0: 14bd a13e 4ac4 503f b96b 303f d8d9 2a3f
000003e0: 8eae 533e 63ce 48bd 2070 84be 867c 9fbe
000003f0: 5fed 973d 232c 713f 0bbd 67bf a8d6 f7be
0.5732757 -0.6296204 0.03555589 0.45738867 -0.34532246 0.9431154 0.41760373 0.85583
-0.46104273 -0.123235926 0.6611759 -0.9962985 0.72232574 0.9679613 1.974092 -0.105061255
-0.23686267 -0.2627563 0.56887174 -0.33661184 0.22710736 -0.057953916 -0.41245154 -0.06891418
-0.20039356 0.3349178 -0.18112995 0.5344852 -0.5321191 -0.7564502 1.8629167 0.95975053
0.5583114 0.077457644 0.8521172 1.4450123 1.4735878 0.6257373 0.5482727 -0.39144567
0.782159 0.60006154 0.7415171 0.73934704 -0.2961068 -0.057034474 -0.39416745 0.39861214
-0.53444487 -0.38036165 -0.42077518 0.7965609 -0.47351724 0.8899989 0.12289311 -0.47402295
-0.2703084 -0.0743352 -0.29820275 0.9883395 0.87689817 -0.41749415 0.80542254 -0.09366
-0.38185927 -0.11744328 -0.17573173 1.0998687 -0.089941196 -0.47570574 -0.10182185 -0.12936494
-0.084067255 -0.61185724 1.0399642 -0.39924753 -0.20239204 0.25411642 -0.4806477 0.8726037
0.26108897 0.9285016 0.012079148 2.4031613 0.0038383142 1.2099347 -0.48422906 -0.16925316
0.36823803 -0.23876989 1.0771915 -0.066370904 0.74211824 -0.20027782 0.15303147 1.0582151
-0.06282717 -0.8687755 0.015958128 0.1242061 1.1847 -0.13382636 -0.23507889 -0.032950114
-0.6527646 -0.43825397 1.1825402 -0.04341315 0.58124334 -0.26516584 1.5738058 -0.38686663
-0.067137994 -0.37939903 0.050061096 1.5319682 0.9298789 -0.2721397 1.6271219 -0.40133923
-1.5156527 0.7901693 -0.3886598 -0.058155518 -0.34834367 0.67765564 -0.019733697 -0.27853903
-0.26000854 0.58341575 0.13642718 -0.5496388 -0.3127656 -0.18085808 -0.21997677 -0.56247306
-0.5019531 -0.22599962 -0.324692 -0.25317717 -0.60453176 1.2076768 1.3388717 -0.3005562
-0.24950543 0.33781812 0.65626705 1.1622697 1.903934 -1.1704773 -0.63383 0.078510344
-0.7206442 -0.3168913 -0.0632412 1.2145014 0.84379995 -0.8045051 -1.1712738 0.14888845
-0.17883246 -0.6802248 0.90816724 0.19036312 -0.034463275 -0.3673486 -0.012943975 -0.15918392
-0.1506084 0.96450645 -0.14583147 0.62402225 -0.20292948 -0.124580786 -0.5807556 0.93228805
0.45618 -0.7228533 -0.33835933 0.380873 -0.33921614 -1.0035999 -0.03462847 0.509856
0.24338591 -0.474454 -0.6518635 0.09799621 0.3934468 -0.1088911 -0.32346725 -0.23271616
-0.55807084 1.1010377 -0.15015508 -0.07106394 0.6173268 -0.39965966 1.8625848 -0.43280974
0.42920268 -0.26623818 -0.04507667 0.2592848 -0.25899547 -0.40144482 -0.14696978 0.006878415
-0.6337561 -0.35693893 0.38152817 -0.1479653 -0.41192868 0.26790592 0.24046758 -0.4368285
-0.3149284 -0.43319258 -0.22875784 0.0064635724 -0.21791829 -0.5020244 0.31452015 0.09521959
-0.07187573 0.03310304 -0.053817473 0.1841889 0.746209 -0.3778012 -0.5077854 -0.6245627
0.64584166 0.74146867 0.50961226 -0.5379996 -0.1274625 -0.45711446 -0.9043064 1.0651429
0.55874956 0.2486891 0.53306997 0.47856462 0.31589568 0.81549513 0.6891437 0.66738653
0.20672056 -0.04902495 -0.25866795 -0.3114969 0.07418322 0.9420797 -0.9052283 -0.48405957

l1.bias f4 [8]
00000000: df59 213f 2c77 413f 5369 593f c462 573f
00000010: 8300 473f 2c9c be3e 30c8 193f 28d8 353f
0.6302776 0.75572467 0.84926337 0.8413508 0.77735156 0.37228525 0.60071087 0.71032953

l2.weight f4 [8, 8]
00000000: 4198 363d 4b15 45bd 00c3 363b e7e4 05be
00000010: 7693 c13c db4f 5e3d fa2b abbe cc04 56be
00000020: 3134 00be a06b bcbe 6e88 c0be 44bc 97be
00000030: 61a8 14be 5da5 9ebd dc5f 3a3e 4b94 0c3e
00000040: cecc 6fbf 6e7d e33f 396d 103e f2a5 27be
00000050: 1abf ed3f 4b19 f4bd 886f a03f 13a0 af3f
00000060: 43ff da3f de96 8ebf 963e cebe f3e5 873f
00000070: bfcd 11c0 a272 c63f 0144 a93f 9bdd 0740
00000080: 9d8b 743f 8245 433f 7374 b8bf c40b 933f
00000090: 7858 bb3f 104f e53f b3d9 44bf ce0a 97be
000000a0: 3901 873f 07c2 e13f bec7 58be 5312 e1bf
000000b0: 4f0d ee3e e5c9 aa3d 4449 0040 0b15 2c3f
000000c0: 4ffb 16be ac86 76be 3b36 a4be 761e 753e
000000d0: 0408 aebd 7a23 9ebe b079 b6bd 2c79 f03d
000000e0: f9f8 0e3f 0cb8 783f 7929 2040 df3b df3f
000000f0: b82e 8e3f 3435 70bf f04d cbbf a75f ab3f
0.044578794 -0.04811601 0.0027887225 -0.130756 0.023629885 0.054275375 -0.3343199 -0.20900267
-0.1251991 -0.3680086 -0.37604088 -0.29635823 -0.14517356 -0.07746384 0.1820063 0.13728444
-0.9367188 1.7772653 0.14104165 -0.16371897 1.8573945 -0.11918887 1.2534037 1.3720726
1.710915 -1.1139791 -0.40282124 1.061705 -2.2781827 1.5503733 1.3223878 2.1229007
0.9552553 0.76277936 -1.4410537 1.1487966 1.4636374 1.7914753 -0.7689468 -0.2950043
1.0547248 1.7637337 -0.21169946 -1.7583717 0.4649453 0.083392896 2.0044718 0.6721961
-0.14744304 -0.2407481 -0.32072625 0.23937401 -0.084976226 -0.3088644 -0.08909929 0.11741862
0.5584865 0.97155833 2.5025313 1.7440146 1.1108007 -0.9383118 -1.588316 1.3388566

l2.bias f4 [8]
00000000: f530 78be 608e cbbe 7db7 6bbe c514 923e
00000010: 1ca8 cf3d 776a 3b3f 8cef bebd f895 043f
-0.24237426 -0.3975706 -0.23019214 0.2853147 0.10139486 0.7320933 -0.09323034 0.51791334

l3.weight f4 [16, 8]
00000000: cdfd a6be 928c 9bbd 7bdf 29bf 677b 083f
00000010: 2e87 2a3f cca1 96be fcce 9abd 9a07 49c0
00000020: 6484 2c3e 4fbd 88be 2ff5 02be 3469 eb3d
00000030: a27f 6d3d 0d7c bfbe 7e82 783e 1dec 97bd
00000040: d38a 843e c364 b1bd 83dc 78bf 83f3 113f
00000050: 51dd 2ebf e5f3 a03d 2482 febd b0df 3abe
00000060: 61ee 653e 3489 663e afba 17c0 a8c7 063f
00000070: 871f aa3d 6bfd 08c0 0d2b 913e a1f1 1b3e
00000080: 23aa 943e bbb6 98be 4f0e 4a3f 2e57 5dc0
00000090: 12e7 1b3f 6777 a3be bf72 883e 813f c3bf
000000a0: f614 273e 7052 88be 46e7 9dbf c65c 613f
000000b0: 0c4b 3fc0 96ac 0dc0 5003 253d 6b73 453f
000000c0: 3ad3 05bd fd4b e13d 5526 113f aa69 62bf
000000d0: eb7b 9abe 87ab 1dbf 00bc c8ba 7c28 2c3f
000000e0: af75 cbbd dc5b 8ebe 0670 103f d0eb 4e3d
000000f0: b19f 3dbf 6af3 c13e 640e 0e3e 70bc 15c0
00000100: 204b adbe 102a 8cbe 9667 9dbf 9ce0 d93e
00000110: be1f 0ebf f0ad 883f b8b9 84be 56e6 2cc0
00000120: bdf8 e23d 7ebe a1be 4ba4 7fc0 2f9b 303f
00000130: 4628 543f 05e0 e0be 4a9c 79be b7be a0bf
00000140: b350 6a3e 45d4 b9be 378b 413f 4fd4 1bc0
00000150: a719 08bf 8fd3 453f be6a 0b3e 47d9 57c0
00000160: efbd 02be 4c2e b3be 67ef 07be c4f7 2cbe
00000170: e26a 25c0 615a 2a3f 9057 b53d 41c1 80be
00000180: 027b a0be 15ee 97bd 3e40 7cbf b417 17bf
00000190: 03e3 5b3f 312d 0d3f 0a34 7a3e 81b3 ccbe
000001a0: 2169 91be f166 ea3d d303 29bf 3925 2dbf
000001b0: ae4a 763f 7195 e1bf ad59 62be 79be e73e
000001c0: 50ca 083e f74c 093e 7c09 bdbd 5d42 3ac0
000001d0: ee3f 91bf 38a8 4bc0 e0dd f43d 3f80 d53f
000001e0: 6140 b13e c0d3 113e 99e2 3f3f cc1c 29c0
000001f0: 5a84 2fc0 4649 a03e 8dc7 903e 98fe 89bd
-0.3261551 -0.07595171 -0.6635663 0.533133 0.6661252 -0.29420316 -0.075590104 -3.141089
0.16847378 -0.2670693 -0.12788843 0.11494675 0.05798305 -0.3739933 0.24268529 -0.07418082
0.25887164 -0.08661797 -0.97211474 0.57012194 -0.6830645 0.07859019 -0.12427166 -0.18249393
0.22454216 0.22513276 -2.3707693 0.526484 0.083067946 -2.1404674 0.28353158 0.15228893
0.29036054 -0.29826912 0.78928083 -3.458446 0.6089946 -0.31927034 0.26650044 -1.5253755
0.1631659 -0.26625395 -1.2336204 0.88032186 -2.9889555 -2.2136588 0.040286362 0.7712924
-0.032672144 0.11000822 0.56699115 -0.8844248 -0.30172667 -0.61589855 -0.0015314817 0.67249274
-0.09934556 -0.27804458 0.56420934 0.050517857 -0.74071795 0.37881023 0.13872677 -2.3396263
-0.33846378 -0.2737584 -1.2297237 0.42554176 -0.55517185 1.0678082 -0.25922942 -2.7015586
0.11082599 -0.31590647 -3.9944026 0.6898679 0.8287395 -0.43920913 -0.24376026 -1.2558202
0.22882347 -0.3629476 0.7560305 -2.4348333 -0.5316414 0.7727594 0.13614938 -3.3726366
-0.12767766 -0.3499626 -0.13274918 -0.1689139 -2.5846486 0.6654416 0.08854592 -0.2514744
-0.31343848 -0.074184574 -0.98535526 -0.59020543 0.8589327 0.5514708 0.24433914 -0.399807
-0.2840052 0.11445416 -0.6602146 -0.6763492 0.962077 -1.7623731 -0.22104521 0.45262507
0.13358426 0.13408266 -0.092303246 -2.9103005 -1.1347635 -3.1821423 0.11956382 1.6679763
0.3461943 0.14240932 0.74955136 -2.6423826 -2.742453 0.31305903 0.28277245 -0.06738013

l3.bias f4 [16]
00000000: ca09 b73e 6f38 95bf 0bc2 f8be 049a 07bf
00000010: 7629 73bf b23d bd3e 2882 003e 4e68 debd
00000020: 8b7f 18be d0a8 b73c 659c ea3e 1ad6 523e
00000030: 558e 8e3f ed6d dcbf 172c b43f dc22 35bf
0.35749656 -1.1657847 -0.48585543 -0.52969384 -0.9498514 0.36961132 0.1254965 -0.10859738
-0.14892404 0.022419363 0.45822445 0.20589486 1.1137186 -1.7221047 1.4075955 -0.70756316
